ax_gaze_estimation/blazeface.opt.onnx (onnx, 417226 bytes, 74 tensors)

backbone1.0.bias f4 [24]
0	0x3e7a66a1	0.24453212
1	0x3ea67cde	0.3251714
2	0x3bbfbf99	0.0058516976
3	0x3e01e820	0.12686205
4	0x3e0ea1c6	0.13928899
5	0x3d64319b	0.05571137
6	0xbf387be5	-0.7206405
7	0x3dde5e74	0.10857859
8	0xbf2edc08	-0.6830449
9	0x3dab21d0	0.083560586
10	0x3e559663	0.20858149
11	0x3e5d2e9f	0.21599816
12	0xbeaf361a	-0.34220964
13	0x3e400205	0.1875077
14	0x3de709e8	0.11281186
15	0x3e575960	0.21030188
16	0x3e33684a	0.17520252
17	0xbfaa4cbd	-1.3304669
18	0xbe821155	-0.25403848
19	0x3ce9213f	0.028458236
20	0xbdc7eff0	-0.09762561
21	0x3d0c5466	0.034260176
22	0xbf82ebd7	-1.0228223
23	0xbf9df70a	-1.2341015

backbone1.0.weight f4 [24, 3, 5, 5]
0	0x3d16b920	0.036797643
1	0xbd4e34e9	-0.050343428
2	0xbda8e87a	-0.082474664
3	0xbdd15df8	-0.10223001
4	0xbd24fd5a	-0.040280677
5	0xbd1e228c	-0.038607165
6	0x3d1a9afd	0.037745465
7	0x3da8be25	0.08239392
8	0xbbd32001	-0.006443024
9	0x3b9c0a45	0.0047619664
10	0x3cf2d5da	0.029642988
11	0x3dbc9613	0.09208312
12	0x3dc310be	0.09524678
13	0xbcda7649	-0.02666773
14	0x3b8316d6	0.004000525
15	0x3d10a873	0.035316896
16	0xbcb810ef	-0.022469012
17	0xbd6cd10d	-0.057816554
18	0xbd6b5d40	-0.057461977
19	0x3c64b007	0.013957984
20	0x3d398bab	0.045299213
21	0x3cb2c682	0.021823172
22	0xbb4485e9	-0.0029987043
23	0x3c8da7fb	0.017292013
24	0x3d3c3004	0.04594423
25	0xbd6bd87a	-0.057579495
26	0xbcaaf65c	-0.020869426
27	0x3c97d079	0.018532025
28	0x3c381389	0.011235126
29	0x3d2fc940	0.042916536
30	0xbdb373ef	-0.08762347
31	0x3df4ba8c	0.119496435
32	0x3e524b9b	0.20536654
33	0x3df5fa7c	0.12010667
34	0x3db9c7e9	0.09071333
35	0xbc45faeb	-0.012083749
36	0x3e02f4cb	0.12788694
37	0x3e07ec69	0.13273777
38	0x3cd8a033	0.026443576
39	0x3d322d6e	0.043500356
40	0xbd6c4d33	-0.05769081
41	0xbd8546c7	-0.0650764
42	0xbddfcd78	-0.10927862
43	0xbdd71590	-0.105021596
44	0xbc8a8aa4	-0.016911812
45	0xbd64aef1	-0.0558309
46	0xbdca058a	-0.09864338
47	0xbdf7a0be	-0.12091206
48	0xbdac8894	-0.08424488
49	0xbd0a8a60	-0.03382337
50	0xbd8a81ec	-0.06763062
51	0xbbe9ccfb	-0.0071350313
52	0x3d01e3f7	0.031711545
53	0xbce58fbc	-0.02802264
54	0x3c453c96	0.012038371
55	0xbd2191b5	-0.039445598
56	0x3e0b1535	0.13582309
57	0x3e3b67ee	0.18301365
58	0x3d95eebd	0.07320926
59	0x3d83479b	0.06410142
60	0x3ca305df	0.01990026
61	0x3e054c82	0.13017467
62	0x3dd9dad0	0.10637438
63	0x3bdeb081	0.0067959432
64	0x3c807928	0.015682772
65	0xbd261f03	-0.04055692
66	0xbd57229a	-0.052523233
67	0xbd867898	-0.0656597
68	0xbd8264a0	-0.06366849
69	0x3baa7639	0.0052020815
70	0xbd1e6c96	-0.038677774
71	0xbd8cad05	-0.06868938
72	0xbdb13d5b	-0.08654281
73	0xbd6d1271	-0.057878915
74	0xbd07fb26	-0.0331985
75	0x3d35a7f2	0.04434962
76	0xbd7bb4bd	-0.061451662
77	0xbd3e77a1	-0.046500806
78	0x3c9989d3	0.018742478
79	0x3e1f560c	0.15560168
80	0xbd34888f	-0.044075545
81	0xbe3cb70c	-0.18429202
82	0xbe3fc02c	-0.18725652
83	0xbdffba32	-0.12486686
84	0x3d85ad82	0.065272346
85	0x3c33e249	0.010979244
86	0xbd22b397	-0.03972205
87	0xbd25f311	-0.04051501
88	0xbca50707	-0.020144952
89	0x3d53d145	0.051713247
90	0xbc58fd10	-0.013243929
91	0x3d06e371	0.03293175
92	0x3cc73e8f	0.024321822
93	0x3ca22662	0.019793693
94	0x3c163836	0.009168675
95	0xbd6b59e2	-0.057458766
96	0x3b72d171	0.0037051106
97	0xbb82bfe6	-0.003990161
98	0x36b22634	5.309261e-06
99	0xbbf92ca0	-0.0076041967
100	0x3d8b4ec4	0.06802133
101	0x3e3e7a95	0.18601449
102	0x3e329281	0.174387
103	0x3d8734b6	0.06601851
104	0xbd6852cb	-0.056719583
105	0x3e3d2a8a	0.18473259
106	0x3ed1f874	0.41009867
107	0x3ef7f22e	0.48426956
108	0x3e6e7935	0.23288424
109	0xbd91b44c	-0.07114467
110	0x3d5d7821	0.054069642
111	0x3ead8e0f	0.33897445
112	0x3eb99db5	0.36253133
113	0x3e07aa44	0.13248545
114	0xbd689dda	-0.056791164
115	0xbd2d8a2c	-0.0423681
116	0x3ba4f847	0.00503448
117	0x3d16680c	0.03672032
118	0xbcb40792	-0.021976266
119	0xbda9523d	-0.08267639
120	0xbd80139e	-0.06253742
121	0xbdc1abaf	-0.09456574
122	0xbd87ed37	-0.06637042
123	0xbdbeb08a	-0.09311016
124	0xbda7d76d	-0.08195386
125	0xbd915867	-0.070969395
126	0xbe1ca5ed	-0.1529767
127	0xbe09a1ba	-0.134406
128	0xbe25e41c	-0.16200298
129	0xbd58b1b5	-0.05290385
130	0xbe1e20a2	-0.15442136
131	0xbe857c93	-0.26071605
132	0xbe74715e	-0.23871371
133	0xbe3a23a4	-0.18177658
134	0xbbcb6708	-0.0062073506
135	0xbd850026	-0.06494169
136	0xbe3b92b5	-0.18317683
137	0xbe7003fa	-0.23439017
138	0xbdf05259	-0.117344566
139	0x3cbd761b	0.023127606
140	0x3ca6b940	0.020352006
141	0xbd8b52f5	-0.06802932
142	0xbdaa2a8c	-0.083088964
143	0xbc91417d	-0.017731423
144	0x3d845d24	0.06463078
145	0x3e04375c	0.12911743
146	0x3dc691e6	0.09695797
147	0x3df06984	0.117388755
148	0x3dc66f1f	0.096891634
149	0x3dc2dead	0.09515128
150	0xbd11e82a	-0.0356218
151	0x3cc1b60e	0.02364638
152	0x3c754646	0.014970368
153	0x3cbb8cb5	0.022894243
154	0xbdaa6b07	-0.08321195
155	0x3dc7a4bb	0.09748217
156	0x3dffc22d	0.12488208
157	0x3d8af719	0.067854114
158	0x3e20e451	0.15712096
159	0x3d25d580	0.040486813
160	0x3cb4a950	0.02205339
161	0x3dbcc249	0.092167445
162	0x3dc57c16	0.09642808
163	0x3db934c1	0.09043265
164	0xbaf92d89	-0.0019010763
165	0xbcae34e0	-0.021265447
166	0x3e04a43d	0.12953277
167	0x3e027bfb	0.12742607
168	0x3e015054	0.12628299
169	0x3ccd6397	0.025071902
170	0xbe1a2465	-0.15052946
171	0xbd02c45c	-0.031925544
172	0xbc6aa4b4	-0.014321495
173	0x3d77f7ed	0.060539175
174	0x3c09d656	0.008412918
175	0xbcb65477	-0.022257073
176	0xbabda79d	-0.0014469508
177	0xbb92b6d0	-0.0044773594
178	0x3d06ce7d	0.032911766
179	0xbd529e06	-0.051420234
180	0xbc62d4bb	-0.013844664
181	0xbdb9bbb3	-0.09069004
182	0xbe0c0589	-0.13673986
183	0x3c85bbda	0.016324926
184	0x3be50ebf	0.0069902833
185	0xbd2b9c92	-0.041897364
186	0xbddc8c59	-0.10768957
187	0xbe1f4e62	-0.15557244
188	0xbd83b11f	-0.064302675
189	0xbdaac953	-0.08339181
190	0x3c8d6955	0.01726214
191	0x3ce75116	0.028236907
192	0xbd357f04	-0.044310585
193	0xbd57a355	-0.052646
194	0xbd95475a	-0.07289
195	0xbc888886	-0.016666662
196	0x3bf3bf82	0.007438601
197	0x3b9dbc56	0.004813711
198	0xbaa3f64e	-0.0012509318
199	0x3c16a736	0.00919514
200	0x3d872178	0.065981805
201	0x3d26c4f4	0.040715173
202	0x3c79cef5	0.015247096
203	0x3d090e57	0.03346094
204	0xbd9b2f05	-0.07577328
205	0x3d9dcc4b	0.077049814
206	0xbba07cdd	-0.0048976974
207	0xbcc8f16a	-0.024529178
208	0x3d8be628	0.06831008
209	0x3cb56e61	0.02214736
210	0x3cb7f5d5	0.022456089
211	0xbd282ff7	-0.041061368
212	0xbda53cb6	-0.0806822
213	0xbb968315	-0.004593263
214	0xbcbf8b01	-0.023381712
215	0x3d03fe1a	0.032224752
216	0x3c0c2401	0.008553506
217	0xbd8928e5	-0.06697253
218	0xbd300bb7	-0.042979922
219	0xbcd961cf	-0.026535897
220	0x3d02754a	0.031850137
221	0x3cb61d73	0.02223084
222	0xbc3e8a2e	-0.011629624
223	0x3d104491	0.03522164
224	0x3d5049d6	0.050851665
225	0xbd6174a7	-0.05504289
226	0xbd89a4c5	-0.067208804
227	0x3d20a153	0.03921635
228	0x3d1d29e8	0.038370043
229	0xbd4c5c4c	-0.04989271
230	0x3d12f295	0.035875876
231	0x3d91bba0	0.07115865
232	0x3e57725c	0.21039718
233	0x3e7a8f82	0.24468806
234	0x3d412e2b	0.04716317
235	0x3cbea476	0.02327178
236	0xbced6725	-0.028979847
237	0xbcef067d	-0.029177899
238	0x3db9bd7c	0.090693444
239	0x3d6a0ef4	0.057143167
240	0x3c50d72d	0.012746614
241	0xbdb3f380	-0.08786678
242	0xbe2b4c4c	-0.16728324
243	0xbe0049df	-0.1252818
244	0xbd8785af	-0.06617295
245	0xbc755a57	-0.014975152
246	0xbcde3d18	-0.027128741
247	0xbd34d3a3	-0.044147145
248	0xbb335cf7	-0.0027368644
249	0x3c1168ec	0.008875113
250	0xbc3d7576	-0.011563649
251	0xbdb2503a	-0.08706708
252	0xbd9401e0	-0.0722692
253	0xbd64c984	-0.055856243
254	0xbc13e973	-0.009027827
255	0xbc87f7ae	-0.016597595

backbone1.10.convs.0.bias f4 [64]
0	0x00000000	0.0
1	0x00000000	0.0
2	0x00000000	0.0
3	0x00000000	0.0
4	0x00000000	0.0
5	0x00000000	0.0
6	0x00000000	0.0
7	0x00000000	0.0
8	0x00000000	0.0
9	0x00000000	0.0
10	0x00000000	0.0
11	0x00000000	0.0
12	0x00000000	0.0
13	0x00000000	0.0
14	0x00000000	0.0
15	0x00000000	0.0
16	0x00000000	0.0
17	0x00000000	0.0
18	0x00000000	0.0
19	0x00000000	0.0
20	0x00000000	0.0
21	0x00000000	0.0
22	0x00000000	0.0
23	0x00000000	0.0
24	0x00000000	0.0
25	0x00000000	0.0
26	0x00000000	0.0
27	0x00000000	0.0
28	0x00000000	0.0
29	0x00000000	0.0
30	0x00000000	0.0
31	0x00000000	0.0
32	0x00000000	0.0
33	0x00000000	0.0
34	0x00000000	0.0
35	0x00000000	0.0
36	0x00000000	0.0
37	0x00000000	0.0
38	0x00000000	0.0
39	0x00000000	0.0
40	0x00000000	0.0
41	0x00000000	0.0
42	0x00000000	0.0
43	0x00000000	0.0
44	0x00000000	0.0
45	0x00000000	0.0
46	0x00000000	0.0
47	0x00000000	0.0
48	0x00000000	0.0
49	0x00000000	0.0
50	0x00000000	0.0
51	0x00000000	0.0
52	0x00000000	0.0
53	0x00000000	0.0
54	0x00000000	0.0
55	0x00000000	0.0
56	0x00000000	0.0
57	0x00000000	0.0
58	0x00000000	0.0
59	0x00000000	0.0
60	0x00000000	0.0
61	0x00000000	0.0
62	0x00000000	0.0
63	0x00000000	0.0

backbone1.10.convs.0.weight f4 [64, 1, 3, 3]
0	0xbeed5876	-0.46356553
1	0xbf3e034a	-0.7422377
2	0xbe2a0186	-0.16602144
3	0xbd0c8edd	-0.034315933
4	0xbe093774	-0.1340006
5	0xbed43200	-0.41444397
6	0x3e8fd129	0.28089264
7	0x3e9a0c4b	0.30087504
8	0xbe489969	-0.19589771
9	0x3f064f78	0.5246501
10	0xbd85bbee	-0.06529985
11	0xbecd08fc	-0.40045917
12	0x3efc635f	0.49294564
13	0xbf0e416c	-0.55568576
14	0xbd59b2cb	-0.053149026
15	0x3ef81332	0.48452145
16	0x3dff6c72	0.12471856
17	0x3e999ab7	0.3000085
18	0x3f2874fa	0.6580349
19	0x3f1a7167	0.6032929
20	0x3cadc273	0.021210885
21	0x3f3fdf4c	0.749501
22	0xbe70a8d2	-0.235019
23	0xbe62069e	-0.22072837
24	0xbd47c309	-0.048769984
25	0xbe39ff57	-0.1816381
26	0x3c02efe8	0.007991768
27	0x3e88db50	0.26729822
28	0x3f30ea20	0.69107246
29	0x3ec8df61	0.39232925
30	0x3dc8eb71	0.09810532
31	0xbef9b192	-0.48768288
32	0x3ed04c44	0.40683186
33	0x3e4e565c	0.20150131
34	0xbf07f178	-0.5310283
35	0xbe025c96	-0.12730631
36	0x3e77a13e	0.24182603
37	0x3d264228	0.040590435
38	0xbeb58af1	-0.35457566
39	0xbd47b4ee	-0.048756532
40	0xbf76042b	-0.9610011
41	0xbea07a9c	-0.31343544
42	0xbed8baf4	-0.42330134
43	0xbe14d026	-0.14532527
44	0xbdab4818	-0.0836336
45	0xbeb2d728	-0.34929776
46	0xbf19d9fd	-0.6009825
47	0x3eb0ce16	0.3453223
48	0xbe9baa2a	-0.30403262
49	0xbde655ef	-0.11246859
50	0x3c007b75	0.007841934
51	0x3ed57259	0.41688803
52	0x3ec9f763	0.39446554
53	0x3de321cb	0.1109043
54	0x3dc5c0e7	0.09655934
55	0x3b1ba8d2	0.0023751748
56	0xbd922bb2	-0.071372405
57	0xbeb41296	-0.3517043
58	0x3f9ddb61	1.2332574
59	0xbe217982	-0.15769008
60	0xbdaf0c9b	-0.08547326
61	0x3dfe985e	0.124314055
62	0x3dd0c6b2	0.10194148
63	0x3e51dc17	0.20494114
64	0x3de98b3a	0.114035085
65	0xbedf3936	-0.43598336
66	0x3f0bb686	0.54575384
67	0x3f10f5a7	0.56624836
68	0xbeb19cba	-0.34689885
69	0x3de71db8	0.11284965
70	0x3da75058	0.08169621
71	0xbe3037a1	-0.1720872
72	0x3e9c36a1	0.3051043
73	0xbe4152e6	-0.1887928
74	0xbf1a0dcc	-0.601773
75	0xbdb43e4e	-0.08800946
76	0x3ecb28d2	0.3967958
77	0xbeb9f9c7	-0.36323377
78	0x3e83c006	0.2573244
79	0x3d640592	0.055669375
80	0xbdd16e3c	-0.10226104
81	0x3eb0f968	0.34565282
82	0x3f07b324	0.5300772
83	0x3e9600d0	0.29297495
84	0x3ef756fe	0.48308557
85	0x3f2156ae	0.6302289
86	0xbe676bce	-0.22599718
87	0x3ead2970	0.33820677
88	0xbf2680fd	-0.6504057
89	0xbf66b410	-0.90118504
90	0xbd280b64	-0.041026488
91	0xbe64226a	-0.22278753
92	0xbe66dd35	-0.22545321
93	0xbe2ec9bf	-0.17069148
94	0xbf21e47c	-0.63239264
95	0xbd88caa7	-0.06679278
96	0xbe971434	-0.295076
97	0x3f5f4e85	0.87229186
98	0x3f3eb3d9	0.74493176
99	0xbc8fd499	-0.01755743
100	0xbe47f51c	-0.19527096
101	0xbd96b19a	-0.073580936
102	0xbeae7669	-0.34074715
103	0x3f508662	0.8145505
104	0xbd9075c3	-0.07053711
105	0x3e8a6abc	0.27034557
106	0x3f06bf22	0.52635396
107	0x3ebd546f	0.3697848
108	0x3e4dd6a4	0.2010141
109	0x3da9fd2f	0.08300244
110	0x3e6647b4	0.2248829
111	0x3f9bcf48	1.2172632
112	0xbf0e42e0	-0.55570793
113	0x3dce712a	0.10080178
114	0x3ef25bd6	0.4733569
115	0x3eb83630	0.35978842
116	0xbe385310	-0.18000436
117	0x3e298cfb	0.16557686
118	0xbf30afaa	-0.6901804
119	0xbeea1a29	-0.45723084
120	0x3f12f56f	0.5740575
121	0x3f1baca6	0.60810316
122	0xbea0cbf3	-0.314056
123	0x3ea06163	0.313243
124	0x3f15425d	0.5830439
125	0x3eb88f57	0.3604686
126	0xbe9b608e	-0.30347103
127	0xbdb04b15	-0.08608071
128	0x3e11441b	0.14186136
129	0xbf0c470c	-0.5479591
130	0x3e4b3e0e	0.1984789
131	0x3e844d71	0.25840333
132	0xbe807382	-0.25088125
133	0x3ea56cbd	0.32309523
134	0x3ed1344e	0.40860218
135	0xbe321f72	-0.17394808
136	0xbe0e560f	-0.13900016
137	0xbe2d18fa	-0.16904059
138	0xbd0573d8	-0.03258118
139	0x3d8fd38a	0.0702277
140	0xbf0f0998	-0.55874014
141	0xbcc77628	-0.024348333
142	0xbea08b1c	-0.31356132
143	0xbf3f5dde	-0.74752605
144	0x3e50e56c	0.20400017
145	0xbe2e8422	-0.17042592
146	0x3cc6609b	0.024215987
147	0x3f066f9c	0.5251405
148	0x3f1f5a57	0.6224722
149	0x3e6e9fc1	0.23303129
150	0xbd987bce	-0.07445489
151	0x3f1ce788	0.6129079
152	0x3eaea5c6	0.3411085
153	0x3f69a477	0.9126658
154	0x3f4a90b1	0.7912703
155	0x3e6e3894	0.2326377
156	0x3f0ef0a7	0.55835956
157	0xbe68c84e	-0.2273266
158	0x3d8c4f81	0.06851102
159	0xbc99bbf5	-0.018766383
160	0xbdf6b328	-0.1204589
161	0x3ddd52ec	0.10806832
162	0x3eaadeae	0.33373016
163	0x3e64e2ed	0.2235219
164	0x3dbb79a6	0.09154062
165	0x3dfb890e	0.122820005
166	0xbf0c6bae	-0.54851806
167	0xbce2c676	-0.027682524
168	0xbf61ca56	-0.88199365
169	0xbf67f7c7	-0.90612453
170	0xbef94e0a	-0.48692352
171	0xbdd06593	-0.10175624
172	0x3e16db28	0.14732039
173	0x3dcb098b	0.099139296
174	0xbe927ba8	-0.28609967
175	0x3f1311e4	0.57449174
176	0x3eb54161	0.35401443
177	0xbf1b9d0d	-0.60786515
178	0xbf33cbaf	-0.7023267
179	0xbe7c991f	-0.24667786
180	0x3f2062a4	0.62650514
181	0x3ea88ee6	0.32921523
182	0xbdfca4ef	-0.12336146
183	0x3f115b78	0.56780195
184	0xbf84bcc4	-1.0370107
185	0xbe35e7de	-0.17764232
186	0x3e13b82b	0.14425723
187	0x3e67925a	0.22614422
188	0x3d7d1135	0.061783988
189	0x3eb56ffb	0.35436997
190	0x3dcb6510	0.099313855
191	0xbeeba0cd	-0.4602112
192	0x3ec55d9a	0.38547975
193	0x3f474e91	0.7785426
194	0xbe81e371	-0.25368837
195	0x3f2ec3cb	0.68267506
196	0x3f31e191	0.6948481
197	0xbded258e	-0.115794286
198	0xbe82796e	-0.25483268
199	0x3cab1048	0.020881787
200	0x3dc497d3	0.09599271
201	0xbf4625c6	-0.7740139
202	0xbebab9d3	-0.36469898
203	0x3d176e1b	0.03697024
204	0xbf35e9fa	-0.71060145
205	0xbe7849e6	-0.2424694
206	0xbdeebc0e	-0.11656962
207	0xbf1ea27a	-0.6196667
208	0x3cb856f7	0.022502406
209	0x3e0deb00	0.13859177
210	0xbea9870c	-0.33110845
211	0x3f13bbdd	0.5770853
212	0x3e71bd14	0.23607284
213	0xbe1f4641	-0.15554143
214	0xbefb60ab	-0.4909719
215	0xbeb45fae	-0.35229248
216	0x3f159dd2	0.5844394
217	0x3f8761d5	1.0576731
218	0x3ea7ad03	0.32749185
219	0x3e902ba5	0.28158298
220	0x3e11e3c0	0.14247036
221	0x3d891722	0.06693865
222	0xbe8a6168	-0.2702744
223	0xbeb0e77d	-0.34551612
224	0xbba1e5b0	-0.004940711
225	0x3e9c158f	0.30485198
226	0x3caf0c38	0.021368131
227	0xbdcd67a1	-0.10029531
228	0x3ef0164a	0.46892005
229	0x3f8f023e	1.1172559
230	0x3e130c81	0.14360239
231	0xbd04e422	-0.032444127
232	0x3e93d83f	0.2887592
233	0x3f07acaf	0.5299787
234	0x3ec5cb4a	0.3863166
235	0xbdd9280e	-0.10603343
236	0xbd0cf73e	-0.034415476
237	0x3f0a94d6	0.54133356
238	0xbf98a3bf	-1.1924971
239	0xbed19767	-0.40935823
240	0x3f11c137	0.5693545
241	0xbe903248	-0.28163362
242	0xbe61bcb3	-0.2204464
243	0xbe001013	-0.12506132
244	0xbf31f575	-0.6951516
245	0xbee9a621	-0.4563456
246	0xbf3a72ec	-0.72831607
247	0xbf22cc45	-0.6359294
248	0x3dc3fabc	0.09569308
249	0xbf11bfe4	-0.56933427
250	0x3e6a6d96	0.22893366
251	0x3e71e637	0.23622976
252	0x3e55b729	0.20870651
253	0xbf3cdcd7	-0.73774475
254	0xbf144b2c	-0.57927203
255	0x3f082878	0.5318675

backbone1.10.convs.1.bias f4 [72]
0	0x3e6da31c	0.23206753
1	0x3f85d9f9	1.0457145
2	0x3fa2f22a	1.2730153
3	0x3f1672ed	0.5876911
4	0xbd56647c	-0.052341923
5	0x3fbea0d1	1.4892827
6	0x3fcdb9e5	1.6072356
7	0xbfa4b7ba	-1.2868569
8	0xbf36eca2	-0.71454823
9	0x3f75c47e	0.9600295
10	0x3fa350a2	1.2758982
11	0x3ebf5975	0.37372938
12	0x3fab0b8c	1.3362899
13	0xbf619fba	-0.8813435
14	0xbe712c7c	-0.23552126
15	0x4003aedf	2.0575483
16	0x3fc17f43	1.5116962
17	0xbf545a80	-0.8295059
18	0x3eb22e1f	0.34800813
19	0x3f61df2a	0.88231146
20	0x40370fa9	2.8603308
21	0x3f501920	0.8128834
22	0xbf781020	-0.96899605
23	0x3f81618a	1.0107892
24	0x40034c99	2.0515501
25	0xbf5f9912	-0.8734294
26	0x3fe1ae72	1.7631361
27	0x3e27720e	0.16352102
28	0xbf7508e8	-0.95716715
29	0x3e544f6c	0.20733422
30	0x3fc0797b	1.5037073
31	0xbe9b2e18	-0.30308604
32	0x3f549215	0.83035403
33	0x3f26d62e	0.6517056
34	0x3e13a2d3	0.14417581
35	0x40007d66	2.0076537
36	0x3fb82941	1.438759
37	0x3fe34020	1.7753944
38	0x3ed05068	0.40686345
39	0x3dc8268a	0.09772976
40	0x3f8d0b4f	1.1019076
41	0xbfa1e0a0	-1.2646675
42	0x3fb6233f	1.4229506
43	0x3fedba01	1.8572389
44	0x3f001f9f	0.5004825
45	0xbc541bb1	-0.012946055
46	0x3d52b077	0.05143782
47	0x3f8b1f47	1.086892
48	0x3fb1f609	1.3903209
49	0xbdd7b02f	-0.10531651
50	0x3f7da9bf	0.99087137
51	0x3f0eb5cf	0.5574617
52	0xbed48130	-0.41504812
53	0xbe322705	-0.17397697
54	0xbf27d684	-0.655617
55	0xbe4d7499	-0.2006401
56	0x3fd97dc4	1.6991506
57	0x3d3389aa	0.04383246
58	0x3f49af37	0.7878298
59	0x3c882baf	0.016622392
60	0x3f52b04c	0.8230026
61	0x3edf1fb6	0.4357888
62	0xbf2d3588	-0.6765981
63	0x3f5ad13d	0.8547552
64	0x3e664486	0.22487077
65	0x3f542137	0.8286318
66	0xbe978604	-0.29594433
67	0xbec7d909	-0.39032772
68	0xbf5493d2	-0.83038056
69	0x3f9d5119	1.2290374
70	0x3e4ff865	0.20309599
71	0x3fa11405	1.2584234

backbone1.10.convs.1.weight f4 [72, 64, 1, 1]
0	0x3e2ab3ac	0.16670102
1	0x3d825ca8	0.06365329
2	0xbcb8c674	-0.022555567
3	0x3d806bb5	0.062705435
4	0x3d8bf94f	0.06834661
5	0x3c4d58d3	0.012533384
6	0x3d73352d	0.059376884
7	0x3e15e975	0.14639838
8	0xbd93b14c	-0.07211551
9	0x3d5d46ee	0.054022722
10	0xbb7645a4	-0.003757813
11	0x3ba5910b	0.005052691
12	0x3df9a614	0.1218988
13	0xbd65d839	-0.05611441
14	0xbdb7ff4a	-0.089842394
15	0x3d4778c1	0.048699144
16	0xbce3e410	-0.02781871
17	0xbdf591f8	-0.11990732
18	0x3df4a5e8	0.119457066
19	0xbc2fbe81	-0.010726572
20	0x3e860cc0	0.26181602
21	0xbeb66e4c	-0.35631025
22	0xbda20980	-0.07911968
23	0x3de4d186	0.11172776
24	0xbda3b10f	-0.079927556
25	0x3e1ae7c8	0.1512748
26	0xbd6cf8e7	-0.05785456
27	0xbd0d3058	-0.034469932
28	0xbda81e75	-0.08208934
29	0xbd84c17b	-0.06482216
30	0xbe04d80f	-0.12973045
31	0x3d50bec5	0.050963182
32	0x3d8a44ca	0.06751402
33	0xbe2b7e95	-0.16747506
34	0xbd8458c1	-0.06462241
35	0xbe1b4fe8	-0.151672
36	0xbd08ff89	-0.033446822
37	0x3ccf028a	0.025269765
38	0xbd0fb5b0	-0.03508538
39	0x3db11ef3	0.08648481
40	0x3d417d15	0.04723843
41	0xbdb64c8f	-0.08901321
42	0x3ddf3c89	0.10900218
43	0x3c8aaeb5	0.01692901
44	0x3dc5d75d	0.09660218
45	0x3e0e0304	0.13868338
46	0xbcb1117d	-0.021614784
47	0xbd68213f	-0.05667233
48	0xbc942083	-0.018081909
49	0xbbffb121	-0.007803098
50	0x3e18fa4f	0.14939235
51	0xbddad305	-0.1068478
52	0x3b0056e1	0.0019583034
53	0xbe0e49eb	-0.13895385
54	0xbe410227	-0.18848477
55	0xbd4b982c	-0.04970567
56	0x3d9c8060	0.07641673
57	0x3d0a496a	0.03376142
58	0xbd425667	-0.04744568
59	0xbe277cc2	-0.16356185
60	0x3b6b2602	0.0035880809
61	0x3da1fffe	0.07910155
62	0x3d0c77d6	0.034293972
63	0xbde2ef66	-0.11080818
64	0x3d9ac75e	0.075575575
65	0x3ec010ea	0.37512904
66	0xbce93d19	-0.028471516
67	0xbe20cb93	-0.15702657
68	0x3c77bf65	0.015121316
69	0xbb4a21c5	-0.0030842882
70	0xbdbd67f3	-0.09248342
71	0xbe24553a	-0.16048136
72	0x3de42b53	0.11141076
73	0xbd86a964	-0.065752774
74	0xbe945e30	-0.2897811
75	0xbb58c9bb	-0.0033079225
76	0x3df2fbab	0.11864408
77	0x3d78a696	0.060705744
78	0xbdc33db6	-0.09533255
79	0xbd1a52ef	-0.037676748
80	0x3da794ee	0.08182703
81	0xbdb4b62e	-0.088238105
82	0xbe21f6e8	-0.15816844
83	0x3d9a9601	0.07548142
84	0x3e59c84b	0.21267812
85	0xbd9612a0	-0.07327771
86	0xba797910	-0.0009516636
87	0x3e2d50ab	0.16925304
88	0xbd4ebba3	-0.050471913
89	0x3d87a7c8	0.066237986
90	0xbd61a39a	-0.055087663
91	0xbdb50096	-0.088380024
92	0x3caa09ca	0.02075662
93	0x3f0a6823	0.5406515
94	0xbe933d90	-0.28757906
95	0xbde00cf1	-0.109399684
96	0x3e12f861	0.14352562
97	0xbe8f49cb	-0.27985987
98	0xbe162722	-0.14663365
99	0x3e0dc31c	0.1384396
100	0xbea3b2f0	-0.31972456
101	0x3c004cac	0.00783078
102	0x3e133ecd	0.14379425
103	0x3de99ee6	0.114072606
104	0xbe69cb28	-0.22831404
105	0xbc6cb300	-0.014446974
106	0x3dc93678	0.09824842
107	0x3d3be485	0.04587223
108	0xbdbd6071	-0.0924691
109	0xbe3afbcc	-0.18260115
110	0x3da3fdbe	0.08007382
111	0x3dbdd9dc	0.09270069
112	0x3cc3138b	0.02381303
113	0x3d652073	0.05593915
114	0xbe81c8ad	-0.25348416
115	0x3e08c007	0.13354503
116	0xba15480d	-0.00056946353
117	0x3db7b7a4	0.089705735
118	0x3e54e85a	0.2079176
119	0xbdbe814a	-0.09302004
120	0x3e500040	0.20312595
121	0x3d2c7997	0.042108145
122	0xbe55f9d3	-0.20896082
123	0xbe6a9a29	-0.2291037
124	0xbdbdfd6c	-0.09276852
125	0xbe1dc6b3	-0.15407829
126	0x3ea9c859	0.33160666
127	0x3e2fdddb	0.17174475
128	0xbe4830e9	-0.19549908
129	0x3d378304	0.04480268
130	0x3e600e5a	0.21880475
131	0xbcb867c8	-0.022510424
132	0x3d0ada31	0.03389949
133	0x3e4a2741	0.19741537
134	0xbd9f3d0f	-0.07775318
135	0x3e5fbc21	0.21849109
136	0x3cb79d2c	0.022413813
137	0xbdbf5529	-0.09342415
138	0x3def6a6f	0.116902225
139	0x3d774d8b	0.060376685
140	0x3dadbc69	0.08483202
141	0x3db51ac1	0.088429935
142	0x3ca9b17f	0.02071452
143	0x3d75f8ed	0.060051847
144	0x3d7e68fc	0.06211184
145	0x3d63a8ca	0.05558089
146	0x3e2d45c7	0.16921149
147	0x3c694c98	0.014239453
148	0x3e028e80	0.12749672
149	0xbdacd351	-0.08438743
150	0xbd286ed4	-0.04112132
151	0xbd051d7d	-0.032498825
152	0xbbe4d1ba	-0.006983009
153	0xbc388740	-0.011262715
154	0xbd84d778	-0.0648641
155	0xbd25a706	-0.04044249
156	0x3d41de50	0.047331154
157	0x3e6e5512	0.23274639
158	0xbc7d8598	-0.015473746
159	0x3d1553c6	0.036456846
160	0xbb02e8bf	-0.0019975153
161	0x3dca2bb0	0.09871614
162	0x3c57ce38	0.013171725
163	0x3d64dc15	0.05587395
164	0xbdf3876e	-0.118910655
165	0xbddd6ee6	-0.10812168
166	0xbd4f5539	-0.050618384
167	0x3d69fa41	0.057123426
168	0x3e0de87d	0.13858218
169	0xbd528737	-0.051398482
170	0xbdaabe90	-0.08337128
171	0xbda4310b	-0.08017167
172	0x3df2fc85	0.118645705
173	0x3ccf3e48	0.025298253
174	0xbd6b38ac	-0.057427093
175	0xbe15cf55	-0.14629872
176	0xbd867ba9	-0.06566555
177	0x3c1f9254	0.009739477
178	0xbb3c7772	-0.0028757718
179	0x3da2f414	0.079567105
180	0xbdcbd265	-0.09952239
181	0x3dabeae9	0.08394415
182	0x3e050806	0.12991342
183	0x3e15ad5f	0.14616917
184	0xbcc345ac	-0.023836933
185	0x3e2a32cc	0.1662094
186	0xbdf26053	-0.11834779
187	0x3d7b7077	0.06138655
188	0x3e0d283b	0.13784878
189	0x3d812109	0.06305129
190	0x3e1478db	0.14499228
191	0x3ec1de24	0.37864792
192	0x3e08a941	0.13345815
193	0x3e07e0e3	0.13269381
194	0xbd5e04f0	-0.054203928
195	0xbdaee80f	-0.085403554
196	0x3e62a871	0.22134568
197	0x3d480009	0.04882816
198	0xbe206e48	-0.15667069
199	0xbe149944	-0.14511591
200	0xbe3f5103	-0.18683247
201	0x3cd65381	0.026162865
202	0xbd808eb2	-0.06277217
203	0xbe12b726	-0.14327678
204	0x3e9e6dd3	0.30943164
205	0x3e65f607	0.22457133
206	0x3db9c5de	0.09070943
207	0x3d718940	0.058968782
208	0xbdfb82a2	-0.122807756
209	0x3cb1fb1c	0.021726184
210	0x3d8dfe5a	0.06933279
211	0xbd8e9605	-0.06962208
212	0xbbca6827	-0.0061769667
213	0x3e2a080f	0.16604637
214	0x3e9522c6	0.29128093
215	0x3e8a9bf8	0.2707212
216	0x3cf12fca	0.029441733
217	0xbe2e1251	-0.16999175
218	0x3e4f1e42	0.20226386
219	0xbceb5f9b	-0.028732112
220	0xbdf64ccf	-0.12026369
221	0xbc59599c	-0.013265993
222	0x3e40bbe2	0.18821672
223	0xbe346a04	-0.17618567
224	0x3e8b226e	0.27174705
225	0xbda98694	-0.08277622
226	0xbd2e79de	-0.04259669
227	0x3c1d1b77	0.009589068
228	0xbe7afbb0	-0.24510074
229	0x3e4500d2	0.19238594
230	0x3e0bc1b6	0.13648114
231	0x3e8542f9	0.2602766
232	0x3d775221	0.06038106
233	0xbe3d6174	-0.18494207
234	0x3d418520	0.0472461
235	0x3ebaff32	0.36522824
236	0x3d9b0288	0.07568842
237	0x3d013a87	0.031549957
238	0x3e852950	0.2600808
239	0xbcdbad4e	-0.026816037
240	0xbd086db4	-0.033307746
241	0x3c1e032c	0.009644311
242	0xbed267dd	-0.41094866
243	0xbcd2e163	-0.025742238
244	0x3eb3584b	0.350283
245	0xbe81be3f	-0.2534046
246	0xbe372f4d	-0.17889138
247	0x3d59cb7e	0.05317258
248	0xbe6f77cc	-0.23385543
249	0x3ed5bee9	0.41747215
250	0xbe3ade26	-0.18248805
251	0xbedb9680	-0.4288826
252	0xbed9e752	-0.42559296
253	0x3f16728e	0.58768547
254	0xbbb60b62	-0.005555556
255	0xbdd799b6	-0.10527365

backbone1.11.convs.0.bias f4 [72]
0	0x00000000	0.0
1	0x00000000	0.0
2	0x00000000	0.0
3	0x00000000	0.0
4	0x00000000	0.0
5	0x00000000	0.0
6	0x00000000	0.0
7	0x00000000	0.0
8	0x00000000	0.0
9	0x00000000	0.0
10	0x00000000	0.0
11	0x00000000	0.0
12	0x00000000	0.0
13	0x00000000	0.0
14	0x00000000	0.0
15	0x00000000	0.0
16	0x00000000	0.0
17	0x00000000	0.0
18	0x00000000	0.0
19	0x00000000	0.0
20	0x00000000	0.0
21	0x00000000	0.0
22	0x00000000	0.0
23	0x00000000	0.0
24	0x00000000	0.0
25	0x00000000	0.0
26	0x00000000	0.0
27	0x00000000	0.0
28	0x00000000	0.0
29	0x00000000	0.0
30	0x00000000	0.0
31	0x00000000	0.0
32	0x00000000	0.0
33	0x00000000	0.0
34	0x00000000	0.0
35	0x00000000	0.0
36	0x00000000	0.0
37	0x00000000	0.0
38	0x00000000	0.0
39	0x00000000	0.0
40	0x00000000	0.0
41	0x00000000	0.0
42	0x00000000	0.0
43	0x00000000	0.0
44	0x00000000	0.0
45	0x00000000	0.0
46	0x00000000	0.0
47	0x00000000	0.0
48	0x00000000	0.0
49	0x00000000	0.0
50	0x00000000	0.0
51	0x00000000	0.0
52	0x00000000	0.0
53	0x00000000	0.0
54	0x00000000	0.0
55	0x00000000	0.0
56	0x00000000	0.0
57	0x00000000	0.0
58	0x00000000	0.0
59	0x00000000	0.0
60	0x00000000	0.0
61	0x00000000	0.0
62	0x00000000	0.0
63	0x00000000	0.0
64	0x00000000	0.0
65	0x00000000	0.0
66	0x00000000	0.0
67	0x00000000	0.0
68	0x00000000	0.0
69	0x00000000	0.0
70	0x00000000	0.0
71	0x00000000	0.0

backbone1.11.convs.0.weight f4 [72, 1, 3, 3]
0	0xbec7862e	-0.38969558
1	0xbe5d9b27	-0.21641217
2	0xbe8a4f8f	-0.27013823
3	0xbe8b6520	-0.2722559
4	0x3e7b6953	0.24551897
5	0x3dc10b12	0.094259396
6	0xbeff9fdb	-0.49926648
7	0xbea46e74	-0.3211552
8	0x3d9cbb39	0.076528974
9	0x3edb6186	0.42847842
10	0x3f0b571d	0.544298
11	0x3d867727	0.06565695
12	0x3e079920	0.13242006
13	0xbde533c7	-0.11191516
14	0xbe0c0be8	-0.13676417
15	0xbd7b82ab	-0.06140391
16	0xbcf09515	-0.029367963
17	0x3ca0107a	0.019539107
18	0x3ea0f79a	0.31438905
19	0xbed2c81d	-0.411683
20	0xbd3abcb8	-0.045590132
21	0x3edb8bb6	0.42880028
22	0xbef17319	-0.47158125
23	0xbebb90fa	-0.36634046
24	0xbc875118	-0.01651816
25	0xbe282d2c	-0.16423482
26	0xbe605128	-0.21905959
27	0x3e655bee	0.2239835
28	0xbe4bd1ef	-0.19904302
29	0xbd93eff6	-0.07223503
30	0x3f92bb74	1.1463456
31	0x3e1e3e9b	0.1545357
32	0xbdfc983f	-0.12333726
33	0x3f527442	0.82208645
34	0x3e9e9b5a	0.309779
35	0xbd123686	-0.03569653
36	0xbc85ba39	-0.01632415
37	0xbf7c64bb	-0.985912
38	0xbf7f6013	-0.9975597
39	0xbd09bf85	-0.033629913
40	0xbdb18563	-0.086680196
41	0xbefb74be	-0.49112505
42	0x3dae384a	0.0850683
43	0x3ee09379	0.43862513
44	0x3eebc038	0.4604509
45	0xbe10e63d	-0.14150329
46	0xbd822b72	-0.06355943
47	0xbeac11f4	-0.33607447
48	0x3b6a9ca1	0.0035798925
49	0x3f1b1231	0.6057463
50	0xbe2ae3fa	-0.16688529
51	0x3ea1f581	0.31632617
52	0xbdbbc768	-0.09168893
53	0xbeb64f84	-0.3560754
54	0x3ec06633	0.37577972
55	0xbf6969b3	-0.9117691
56	0xbee06512	-0.4382711
57	0xbd9e22ac	-0.07721457
58	0x3eb20610	0.3477025
59	0x3e948d53	0.29014072
60	0xbece9399	-0.40346983
61	0xbc5614f6	-0.013066521
62	0xbd331ff5	-0.04373165
63	0x3ddd38d8	0.10801858
64	0x3f03d50f	0.51496977
65	0x3e2a626e	0.1663911
66	0xbf190f2c	-0.59788775
67	0x3e235104	0.15948874
68	0x3e9edecc	0.31029356
69	0xbf0ce0b8	-0.55030394
70	0xbf0e77b4	-0.556514
71	0xbe0f4f06	-0.13994989
72	0x3ae63d9d	0.001756597
73	0x3e7f18cd	0.24911804
74	0xbda05cf5	-0.0783023
75	0xbf19f159	-0.6013389
76	0x3eec8bec	0.46200502
77	0x3e770e5e	0.24126574
78	0xbe323748	-0.174039
79	0xbe22bd93	-0.1589263
80	0xbb5bf907	-0.003356518
81	0xbe0127fe	-0.12612912
82	0xbf00ce45	-0.5031474
83	0xbdd02ca2	-0.10164763
84	0xbe95af09	-0.29235104
85	0x3e91acc8	0.28452134
86	0x3e820cb3	0.25400314
87	0xbf34ea21	-0.7066975
88	0xbf07ecb5	-0.5309556
89	0xbe22c43e	-0.15895173
90	0xbdd4a846	-0.10383658
91	0xbdee101c	-0.11624166
92	0xbedff350	-0.4374032
93	0xbd3d4b84	-0.046214595
94	0x3df11881	0.11772252
95	0xbf50216d	-0.81301004
96	0xbc41e0db	-0.011833395
97	0xbf06155b	-0.52376336
98	0xbf5b6c08	-0.8571172
99	0x3ec699d8	0.38789248
100	0x3f3743cb	0.7158782
101	0x3efdde93	0.49583873
102	0x3ca70398	0.020387456
103	0x3f63e546	0.8902172
104	0x3e638b90	0.22221208
105	0x3e7589eb	0.23978393
106	0xbe40ad5c	-0.18816131
107	0xbddc4ab6	-0.107564375
108	0xbe30ff93	-0.17284994
109	0xbeb7f482	-0.35928732
110	0xbe2022d8	-0.15638292
111	0xbf18bbf7	-0.5966181
112	0xbf05e195	-0.52297336
113	0xbeb8e36d	-0.36111012
114	0xbe638daa	-0.2222201
115	0x3ec14187	0.37745306
116	0x3e9c9f87	0.3059046
117	0x3d2d4755	0.042304356
118	0xbd240019	-0.040039156
119	0xbe395e7a	-0.18102446
120	0x3dce1bbf	0.10063886
121	0x3f6488b9	0.8927112
122	0xbebf1e60	-0.37327862
123	0xbe95a292	-0.29225594
124	0xbf132985	-0.5748523
125	0xbf7b6514	-0.9820111
126	0x3f207862	0.6268369
127	0xbd0ab9a5	-0.03386845
128	0x3e16288e	0.14663908
129	0x3eac48fe	0.3364944
130	0xbe9e9406	-0.30972308
131	0x3da18501	0.078866966
132	0x3e943ecc	0.2895416
133	0x3ed7c96a	0.42145854
134	0x3e830bf8	0.2559507
135	0xbdbe9472	-0.093056574
136	0xbe4c4596	-0.1994842
137	0xbee5a41b	-0.44851765
138	0xbda35246	-0.07974677
139	0xbf426e3b	-0.7594945
140	0xbea0284b	-0.3128074
141	0xbe371952	-0.17880753
142	0xbdc5d787	-0.09660249
143	0x3e09595f	0.13412999
144	0xbe25220f	-0.16126274
145	0xbee62bd0	-0.449553
146	0xbef374db	-0.4755009
147	0xbb4e9ad5	-0.0031525393
148	0xbdbd1c98	-0.092339694
149	0xbf02c864	-0.5108702
150	0x3dd8326d	0.10556493
151	0xbe3d7112	-0.18500164
152	0xbe837174	-0.25672495
153	0xbde61cd1	-0.11235965
154	0x3e70e3b7	0.23524366
155	0x3e4d19be	0.20029351
156	0xbe2e5240	-0.17023563
157	0x3f8f8d59	1.1215011
158	0x3ee03101	0.43787387
159	0xbf6d9699	-0.9280792
160	0xbe9acc19	-0.3023384
161	0xbf03f45b	-0.5154473
162	0x3e38e490	0.1805594
163	0xbd260261	-0.040529612
164	0xbe2ae174	-0.16687566
165	0xbe0177d2	-0.12643364
166	0x3f6ce6ce	0.9253968
167	0xbe269782	-0.16268733
168	0xbf2301dc	-0.6367471
169	0x3ce397c9	0.027782338
170	0x3dc03927	0.09385901
171	0x3f0a9071	0.5412665
172	0xbd406741	-0.04697347
173	0xbed8036d	-0.42190114
174	0x3ef07955	0.4696757
175	0x3d6ecc8a	0.058300532
176	0xbe53ca61	-0.2068267
177	0x3de83862	0.11338879
178	0xbe965e90	-0.2936902
179	0x3e3faf1d	0.18719144
180	0xbd838cc7	-0.064233355
181	0xbe6d389f	-0.2316613
182	0xbecb72f6	-0.39736146
183	0xbe33cc38	-0.17558372
184	0x3fc5441f	1.5411414
185	0xbda7e14a	-0.08197267
186	0xbe824310	-0.2544179
187	0xbe533fc0	-0.20629787
188	0xbef0b771	-0.47014955
189	0xbdf250d4	-0.11831823
190	0xbe1c5b12	-0.15269116
191	0x3e8088d1	0.25104383
192	0x3ed1a078	0.4094274
193	0x3e83432c	0.25637186
194	0xbe26e77b	-0.1629924
195	0x3e8befc6	0.2733137
196	0x3f9ce3c7	1.2257012
197	0x3d0879bf	0.03331923
198	0x3e1f8ab6	0.15580258
199	0x3e7104f5	0.23537047
200	0x3e4bd557	0.19905601
201	0x3e5f68d1	0.21817328
202	0xbe71dd53	-0.23619585
203	0xbee76220	-0.4519205
204	0xbdf46ffb	-0.11935421
205	0xbf1a33d3	-0.6023533
206	0xbf14d6c8	-0.5814023
207	0xbede4d0c	-0.43418157
208	0x3be7577e	0.0070599904
209	0x3e059e73	0.13048725
210	0xbe2e15e2	-0.17000535
211	0x3f23d2e6	0.6399368
212	0xbd0fd74d	-0.035117436
213	0xbee35503	-0.44400796
214	0x3e1fbf7a	0.15600386
215	0xbcdb6084	-0.02677942
216	0x3e322f92	0.17400959
217	0x3f76f79f	0.9647159
218	0x3e492d24	0.19646126
219	0xb8c32a3f	-9.3061935e-05
220	0x3dc8816a	0.09790309
221	0xbd39f68f	-0.045401152
222	0x3c20dd94	0.009818453
223	0xbe1796da	-0.14803639
224	0xbcac9993	-0.021069324
225	0x3c955645	0.018229613
226	0x3eaaca5d	0.33357516
227	0x3e9761a7	0.2956669
228	0x3ea7cd0a	0.3277362
229	0x3f068914	0.52552915
230	0x3ee55987	0.44794866
231	0x3f012f38	0.50462675
232	0x3ee0df1b	0.43920216
233	0x3ea7dc3c	0.32785213
234	0x3de49a4b	0.111622415
235	0x3ec8b579	0.39200953
236	0x3f7047f3	0.93859786
237	0x3df6ad6c	0.12044796
238	0xbf2e3c1b	-0.68060464
239	0x3eb12c00	0.34603882
240	0x3e0c2f32	0.13689879
241	0xbe014648	-0.12624466
242	0xbd1ae066	-0.03781166
243	0xbf680770	-0.9063635
244	0xbf5c2ded	-0.8600758
245	0xbed2525c	-0.4107846
246	0xbf567ddb	-0.8378579
247	0xbfd1d2a0	-1.6392403
248	0xbf2470da	-0.642347
249	0x3eb4d3a7	0.35317728
250	0xbedd207d	-0.4318885
251	0x3cee8784	0.029117353
252	0x3e7ae192	0.24500111
253	0x3e21f8b9	0.15817536
254	0x3e2b75fc	0.16744226
255	0x3e5f9d3c	0.21837324

backbone1.11.convs.1.bias f4 [80]
0	0x3f0fedf7	0.5622248
1	0x3fa1bb13	1.2635216
2	0x3f8fab70	1.1224194
3	0x3fef06f8	1.8674002
4	0x3f6f49f6	0.9347223
5	0x3e90a6f1	0.28252366
6	0x3d85f6c2	0.06541206
7	0x3ee348cf	0.44391486
8	0x4005e7df	2.0922773
9	0x3fcefb46	1.6170433
10	0x400dfb1a	2.218451
11	0x40012ae7	2.0182436
12	0x4030bfa7	2.7616975
13	0x3fa5425c	1.2910876
14	0xbeb050e8	-0.34436727
15	0x3f6abb56	0.916921
16	0x3f9e9240	1.2388382
17	0x3f8c5be6	1.0965545
18	0x40004192	2.004002
19	0x4007b3b1	2.1203425
20	0x3fc143ad	1.5098778
21	0xbeb1f9d8	-0.34760928
22	0x3f62ec9a	0.88642275
23	0x3ff51c40	1.9149246
24	0x406a1e47	3.658098
25	0x3fcb494f	1.5881747
26	0xc01e6aa9	-2.47526
27	0x3faa04de	1.3282735
28	0x3e4e8f71	0.20171906
29	0x3ec7627a	0.3894232
30	0x3ebe19b3	0.37128982
31	0x3fdd08c5	1.7268301
32	0x3ee794bc	0.45230663
33	0xbf3e48a6	-0.743296
34	0x3fbbe3f5	1.4678942
35	0x3fdc593f	1.7214736
36	0xbe0ab984	-0.13547331
37	0xbf5e707f	-0.86890405
38	0xbedfc328	-0.4370358
39	0x3f949572	1.1608107
40	0x405d8c05	3.461671
41	0x3fe07b15	1.7537562
42	0x3ea44bfc	0.3208922
43	0x3dda9aad	0.10674033
44	0x3f084560	0.5323086
45	0xbcedded0	-0.02903691
46	0x3e0e0166	0.13867721
47	0x3f037fdc	0.5136697
48	0xbe554ad9	-0.20829333
49	0x401de11d	2.4668648
50	0x3fda6cb6	1.7064426
51	0x3c914010	0.017730743
52	0x3ed163b7	0.4089639
53	0x3f2f898b	0.6856925
54	0x3e9b38f8	0.303169
55	0x3fbdc342	1.4825213
56	0x3f3bb90e	0.73329246
57	0x3f68151b	0.90657204
58	0x3cfcb6b8	0.030848846
59	0x3f3a8407	0.7285771
60	0x3ec176a2	0.37785822
61	0x4008335a	2.1281343
62	0x3ea841b2	0.32862622
63	0xbf422328	-0.75834894
64	0x3f4afb9c	0.79290175
65	0x3fb72956	1.430949
66	0x3f545a92	0.829507
67	0xc023a1ec	-2.556758
68	0x3e75007b	0.23925965
69	0x3e790b82	0.24320796
70	0xc01864b6	-2.381147
71	0x3d85d0fb	0.065340005
72	0xbdef2409	-0.11676795
73	0x3f62ffd7	0.8867163
74	0x3ea3b0c2	0.31970793
75	0xbf4f8a4a	-0.8107039
76	0x3ed65046	0.4185812
77	0x3f09700c	0.53686595
78	0x3e925469	0.28580025
79	0x3e906b74	0.2820698

backbone1.11.convs.1.weight f4 [80, 72, 1, 1]
0	0xbe919684	-0.28435147
1	0x3df91ff6	0.12164299
2	0xbc9a2ab6	-0.018819194
3	0xbbdcd511	-0.0067392667
4	0x3d4c2c71	0.04984707
5	0xbe1c6145	-0.1527148
6	0xbe27591f	-0.16342591
7	0x3dc5be3f	0.09655427
8	0xbe071986	-0.1319333
9	0xbe0c0ff8	-0.13677967
10	0x3e59e77b	0.21279709
11	0x3ce160ce	0.02751198
12	0xbe59960c	-0.21248645
13	0xbde023db	-0.10944339
14	0xbdfec122	-0.12439181
15	0x3db885c6	0.0900989
16	0xbc415011	-0.0117988745
17	0x3d9c14f2	0.076211825
18	0xbd264266	-0.040590666
19	0x3e349334	0.17634279
20	0xbd644141	-0.055726293
21	0xbe804f9f	-0.25060746
22	0xbdad2dd8	-0.084560096
23	0xbd1952e8	-0.03743258
24	0xbdce8e14	-0.10085693
25	0xbcd5abc9	-0.02608289
26	0xbe08fbdb	-0.13377325
27	0x3e35d5eb	0.17757384
28	0x3cfaa267	0.030595018
29	0x3ca75129	0.020424442
30	0x3d9970bc	0.074922055
31	0x3c199147	0.009373016
32	0xbe1e68d5	-0.15469678
33	0xbe8da754	-0.27666724
34	0x3c88ee50	0.016715199
35	0x3e1245ad	0.14284392
36	0xbd821d6e	-0.063532695
37	0x3df540a6	0.11975221
38	0xbd16b6ca	-0.036795415
39	0xbd96cd6f	-0.07363402
40	0xbae57068	-0.0017504813
41	0x3de419e4	0.11137751
42	0xbe10c2e7	-0.1413685
43	0xbd45ac01	-0.04825974
44	0x3da08833	0.07838478
45	0xbe90b602	-0.2826386
46	0x3e0d00fd	0.13769908
47	0x3e53fae3	0.20701174
48	0x3d13cf9b	0.03608666
49	0xbce1858d	-0.027529502
50	0xbdc85c85	-0.09783272
51	0x3e48726a	0.19574896
52	0xbdc4325b	-0.09579917
53	0xbcee078c	-0.029056333
54	0x3e603681	0.21895792
55	0x3d10d2de	0.03535735
56	0xbe1f1d80	-0.15538597
57	0x3ea4233c	0.32058132
58	0x3d32ea34	0.043680385
59	0x3de2ee63	0.11080625
60	0xbd4ee149	-0.050507817
61	0x3e6744f6	0.225849
62	0x3e0632d7	0.13105331
63	0xbcd99fed	-0.026565516
64	0xbc943a6a	-0.01809426
65	0xbe3d062e	-0.18459389
66	0xbd97f681	-0.07420064
67	0x3e0532f7	0.13007723
68	0xbc31b571	-0.010846482
69	0xbda8480c	-0.08216867
70	0xbdf1836a	-0.11792643
71	0xbddd59c0	-0.10808134
72	0xbd202213	-0.039094996
73	0xbe9bae7b	-0.30406556
74	0x3cc0a648	0.02351679
75	0x3b38e708	0.0028213877
76	0x3bd16cd7	0.0063911485
77	0xbdae3015	-0.08505265
78	0xbdb7cc5b	-0.089745246
79	0x3e0d949a	0.13826218
80	0x3dce078e	0.10060035
81	0xbdf17414	-0.11789718
82	0x3c473ecc	0.012160968
83	0x3c3534ea	0.011059979
84	0x3e8c1c3f	0.273653
85	0xbe1b5011	-0.15167262
86	0x3e056489	0.13026632
87	0xbdaf576d	-0.08561597
88	0x3d679816	0.056541525
89	0xbdca7254	-0.098850876
90	0x3c8d2d28	0.017233446
91	0xbc9eda78	-0.019391283
92	0xbd10e237	-0.035371985
93	0xbdcca731	-0.09992827
94	0x3cc17c26	0.023618769
95	0xbd523fd6	-0.05133041
96	0xbbd5c710	-0.0065239742
97	0xbd88ba18	-0.066761196
98	0xbec11755	-0.37713113
99	0xbe8c8730	-0.2744689
100	0xbdd3fad0	-0.10350573
101	0x3cb82c37	0.02248202
102	0x3e8d836d	0.27639332
103	0xbde578fa	-0.11204715
104	0xbebb34fa	-0.36563855
105	0x3e8b09d7	0.27155945
106	0x3e2f122b	0.17096774
107	0x3d19ffb6	0.03759738
108	0xbe2b40f9	-0.16724004
109	0xbec01171	-0.37513307
110	0xbe245dcc	-0.16051406
111	0x3c892420	0.016740859
112	0x3d88958b	0.06669148
113	0x3e4fd0b4	0.20294458
114	0x3e939abc	0.2882899
115	0x3e4f9c15	0.20274384
116	0xbddfcf3c	-0.10928199
117	0x3da90985	0.08253769
118	0xbe88c449	-0.26712254
119	0x3e76a672	0.24086931
120	0xbd8705d4	-0.065929085
121	0x3e0181e9	0.12647213
122	0x3e15de66	0.1463562
123	0x3cd0c078	0.025482401
124	0x3cd53957	0.026028318
125	0xbe9195fd	-0.28434744
126	0xbda63d18	-0.081171215
127	0x3e130803	0.14358525
128	0xbe47b7e6	-0.19503745
129	0x3cc65105	0.024208555
130	0xbd8afc31	-0.06786383
131	0x3ce6b2f7	0.028161509
132	0x3e2f53ad	0.17121764
133	0xbcfe9eb3	-0.031081533
134	0xbd85de28	-0.065365136
135	0x3e0ed0a2	0.13946775
136	0xbd8fa5c6	-0.07014041
137	0x3eab37a6	0.33440894
138	0x3dfcddb9	0.12346978
139	0x3d0dc997	0.03461608
140	0x3e3ac65b	0.18239729
141	0x3e6414ec	0.22273606
142	0x3e308395	0.17237695
143	0xbd18b60f	-0.037283
144	0x3e837f44	0.25683033
145	0xbdcfbf92	-0.10143961
146	0x3e743e88	0.23851979
147	0xbe81a9fd	-0.25325003
148	0x3e24a04a	0.1607677
149	0x3d1cc72e	0.03827589
150	0xbd6b49ca	-0.057443418
151	0x3d2abd71	0.04168457
152	0xbdb79567	-0.08964043
153	0xbd4e72e4	-0.050402537
154	0x3e17210d	0.14758702
155	0x3d8859d8	0.06657761
156	0x3e10be84	0.14135176
157	0x3ddd2794	0.107985646
158	0xbcdefe3d	-0.02722084
159	0x3d188fe9	0.03724662
160	0x3de09034	0.109650046
161	0xbddc0c8d	-0.10744581
162	0xbdf037fc	-0.11729428
163	0xb9cdd348	-0.00039258064
164	0x3e541b35	0.20713504
165	0x3c8c2bf9	0.017110812
166	0xbe1f4052	-0.1555188
167	0xbe63bcc0	-0.22239971
168	0xbc92f9f4	-0.017941453
169	0xbd537325	-0.051623482
170	0x3e71dfee	0.23620579
171	0x3ab1d568	0.0013567628
172	0xbe02d411	-0.1277621
173	0xbc0d7a69	-0.008635142
174	0xbe71c979	-0.23612012
175	0xbc44241d	-0.011971501
176	0x3e0ad149	0.13556398
177	0xbdf6434c	-0.120245546
178	0xbda7ddda	-0.08196612
179	0xbd954526	-0.0728858
180	0xbd1b0f1c	-0.037856206
181	0xbe8870ac	-0.26648462
182	0x3db3b4ec	0.087747425
183	0x3aa4a76e	0.0012562105
184	0x3cd1a3c9	0.025590794
185	0x3ea9e69c	0.33183753
186	0xbe27b750	-0.16378522
187	0xbe06f0a4	-0.13177735
188	0xbe576184	-0.21033293
189	0x3d0a18c7	0.033715036
190	0xbd969d24	-0.07354191
191	0xbc8ba893	-0.017048156
192	0xbe677cec	-0.22606248
193	0x3cea4167	0.02859564
194	0x3e1b2598	0.1515106
195	0x3eaca6bf	0.33720967
196	0xbd56b080	-0.052414417
197	0x3c239b69	0.009985783
198	0x3e6dfb9e	0.23240516
199	0xbd9a77c8	-0.07542378
200	0x3d80b485	0.06284431
201	0x3cb0b644	0.021571286
202	0xbd1ad74c	-0.03780298
203	0x3e0146b0	0.12624621
204	0x3d98d87c	0.07463166
205	0xbde75fa2	-0.112975374
206	0x3e8697b1	0.26287606
207	0x3c6d5ed2	0.014487939
208	0x3e092d49	0.13396181
209	0x3e255898	0.16147077
210	0x3e98bb34	0.29830325
211	0x3e32daf4	0.17466336
212	0xbd274da1	-0.040845517
213	0xbe386554	-0.18007404
214	0xbe96c2db	-0.29445538
215	0xbcac42ac	-0.021027885
216	0xbd858ba8	-0.06520778
217	0x3e05e1fc	0.13074487
218	0xbccfa42e	-0.025346842
219	0xbce50b6d	-0.02795955
220	0x3bf9069d	0.0075996653
221	0x3d8feab6	0.070271894
222	0x3e99b359	0.30019644
223	0x3d0e85e2	0.03479565
224	0xbd571fe1	-0.052520636
225	0xbe096d3b	-0.13420574
226	0x3eed8575	0.46390882
227	0x3e5734c9	0.2101623
228	0xbc06b6c9	-0.00822229
229	0x3e94e2ef	0.29079387
230	0xbdbd53b7	-0.09244483
231	0xbc350f1a	-0.011050964
232	0xbc929591	-0.017893584
233	0xbe31af50	-0.17352033
234	0xbd3dd3ee	-0.04634469
235	0x3da876f8	0.082258165
236	0xbe977302	-0.29579931
237	0x3d2c2ede	0.042036884
238	0xbea4c960	-0.32184887
239	0x3e6b26b4	0.22963983
240	0xbec515c7	-0.38493177
241	0xbc793b5f	-0.015211909
242	0xbb6dbc16	-0.0036275438
243	0xbe3ac3b7	-0.18238722
244	0xbea0c702	-0.3140183
245	0x3d38a3c7	0.045078065
246	0xbe360559	-0.17775477
247	0xbe74a3b5	-0.23890574
248	0xbdbd3bc3	-0.09239914
249	0xbe444502	-0.1916695
250	0xbe30e0d4	-0.17273265
251	0x3e788e2d	0.24272986
252	0xb9d0df62	-0.00039839285
253	0x3e8f764e	0.28019947
254	0xbda7081a	-0.08155842
255	0x3e0e96c3	0.13924699

backbone1.12.convs.0.bias f4 [80]
0	0x00000000	0.0
1	0x00000000	0.0
2	0x00000000	0.0
3	0x00000000	0.0
4	0x00000000	0.0
5	0x00000000	0.0
6	0x00000000	0.0
7	0x00000000	0.0
8	0x00000000	0.0
9	0x00000000	0.0
10	0x00000000	0.0
11	0x00000000	0.0
12	0x00000000	0.0
13	0x00000000	0.0
14	0x00000000	0.0
15	0x00000000	0.0
16	0x00000000	0.0
17	0x00000000	0.0
18	0x00000000	0.0
19	0x00000000	0.0
20	0x00000000	0.0
21	0x00000000	0.0
22	0x00000000	0.0
23	0x00000000	0.0
24	0x00000000	0.0
25	0x00000000	0.0
26	0x00000000	0.0
27	0x00000000	0.0
28	0x00000000	0.0
29	0x00000000	0.0
30	0x00000000	0.0
31	0x00000000	0.0
32	0x00000000	0.0
33	0x00000000	0.0
34	0x00000000	0.0
35	0x00000000	0.0
36	0x00000000	0.0
37	0x00000000	0.0
38	0x00000000	0.0
39	0x00000000	0.0
40	0x00000000	0.0
41	0x00000000	0.0
42	0x00000000	0.0
43	0x00000000	0.0
44	0x00000000	0.0
45	0x00000000	0.0
46	0x00000000	0.0
47	0x00000000	0.0
48	0x00000000	0.0
49	0x00000000	0.0
50	0x00000000	0.0
51	0x00000000	0.0
52	0x00000000	0.0
53	0x00000000	0.0
54	0x00000000	0.0
55	0x00000000	0.0
56	0x00000000	0.0
57	0x00000000	0.0
58	0x00000000	0.0
59	0x00000000	0.0
60	0x00000000	0.0
61	0x00000000	0.0
62	0x00000000	0.0
63	0x00000000	0.0
64	0x00000000	0.0
65	0x00000000	0.0
66	0x00000000	0.0
67	0x00000000	0.0
68	0x00000000	0.0
69	0x00000000	0.0
70	0x00000000	0.0
71	0x00000000	0.0
72	0x00000000	0.0
73	0x00000000	0.0
74	0x00000000	0.0
75	0x00000000	0.0
76	0x00000000	0.0
77	0x00000000	0.0
78	0x00000000	0.0
79	0x00000000	0.0

backbone1.12.convs.0.weight f4 [80, 1, 3, 3]
0	0xbd61ec19	-0.0551568
1	0xbee5f5c8	-0.4491408
2	0xbcac47a5	-0.021030257
3	0x3dcd7139	0.10031361
4	0xbdc39afb	-0.095510446
5	0xbe35e073	-0.17761402
6	0x3e3ea2fb	0.1861686
7	0x3f193b3d	0.59856015
8	0x3df39025	0.11892728
9	0xbd9a8e73	-0.07546701
10	0xbda6e655	-0.08149401
11	0xbcc7a3d2	-0.024370108
12	0xbe1c0289	-0.15235342
13	0x3fa32e33	1.2748474
14	0xbda5e3bb	-0.08100077
15	0xbd7d0500	-0.061772346
16	0xbe1df20e	-0.15424368
17	0xbb9cdd09	-0.0047870916
18	0xbd9b4f12	-0.07583441
19	0x3e6d01d5	0.2314523
20	0x3efbc0a3	0.49170408
21	0xbe651c7e	-0.2237415
22	0x3d6612e0	0.056170344
23	0x3db4decf	0.0883156
24	0xbe3ce513	-0.1844676
25	0xbed065a6	-0.40702552
26	0xbeef5b16	-0.4674918
27	0x3d39f82c	0.04540269
28	0x3d801922	0.06254794
29	0x3c7db813	0.015485781
30	0x3e22fb19	0.15916099
31	0xbfb7e50a	-1.4366772
32	0xbd8ef215	-0.06979767
33	0x3d6f54de	0.058430545
34	0xbb660a09	-0.0035101196
35	0xbcbd19b9	-0.023083555
36	0xbe6f5603	-0.23372655
37	0xbf0ff5e1	-0.56234556
38	0xbf2dbe3c	-0.678684
39	0x3c0332ae	0.008007688
40	0x3f076ab1	0.52897173
41	0xbead3a26	-0.33833426
42	0xbd99d776	-0.07511799
43	0x3e107d24	0.14110237
44	0xbcb7e7bf	-0.022449372
45	0x3e8772f1	0.2645488
46	0x3eae0737	0.3398988
47	0x3daee2d1	0.085393555
48	0x3e251886	0.16122636
49	0x3e83c7b3	0.25738296
50	0x3e85b67b	0.26115784
51	0x3e76d272	0.24103716
52	0x3e200f6c	0.15630883
53	0x3e144e2a	0.14482942
54	0x3d7b39cc	0.061334416
55	0x3eafad1e	0.34311765
56	0x3d3bbb46	0.045832895
57	0x3d06717c	0.03282307
58	0xbf986d6b	-1.1908392
59	0xbdcbafde	-0.099456534
60	0x3eb5de12	0.3552099
61	0x3e50d680	0.20394325
62	0x3eefe9ed	0.4685816
63	0xbe90c6ae	-0.2827658
64	0xbe9a3999	-0.3012207
65	0xbe845032	-0.25842434
66	0xbea1a899	-0.31573942
67	0xbed91c29	-0.42404297
68	0xbe9aa942	-0.30207258
69	0xbe2e0ecd	-0.16997834
70	0xbe95d77d	-0.29265967
71	0xbe3adee3	-0.18249087
72	0x3ed3ac05	0.41342178
73	0x3e6af7a7	0.22946034
74	0xbdb3ef62	-0.08785893
75	0x3ecd905e	0.40149206
76	0xbcf6c747	-0.03012432
77	0xbd1dca7d	-0.038523186
78	0xbcfb587b	-0.03068184
79	0xbd47aefe	-0.04875087
80	0xbd256ec4	-0.040388837
81	0x3dab268c	0.083569616
82	0x3d4ea5cd	0.05045109
83	0x3d44a5f4	0.048009828
84	0x3dde9da7	0.108699135
85	0xbfa5879a	-1.2932007
86	0xbdeb8522	-0.115000024
87	0x3d6b7c1a	0.0574914
88	0xbdf234c0	-0.118264675
89	0xbe128c62	-0.14311364
90	0xbe880b4e	-0.26571125
91	0xbea5dafd	-0.32393637
92	0x3d828ff7	0.06375115
93	0xbea5ad34	-0.32358706
94	0xbded0da3	-0.115748666
95	0x3f1ef4f7	0.62092537
96	0xbe336197	-0.17517696
97	0xbcb0b58a	-0.02157094
98	0x3e42436c	0.18971032
99	0xbea5e146	-0.32398432
100	0xbf1aa78a	-0.60411894
101	0xbe1e7f00	-0.15478134
102	0x3e598460	0.21241903
103	0xbf8e503e	-1.1118238
104	0xbf4cdc80	-0.80023956
105	0x3d4e2c87	0.050335433
106	0x3ea0e611	0.31425527
107	0xbe35132f	-0.17683099
108	0x3e7e269f	0.2481942
109	0x3ecb822a	0.39747745
110	0x3ec7292e	0.38898605
111	0xbec45402	-0.38345343
112	0x3e19ad32	0.15007475
113	0x3e2dfd6f	0.16991208
114	0xbe86be45	-0.2631704
115	0xbf1d6be8	-0.61492777
116	0xbe2114b7	-0.15730558
117	0xbd3ebc32	-0.046566196
118	0xbe21ade6	-0.15788993
119	0xbcf7276e	-0.030170169
120	0x3b07bb83	0.002071113
121	0x3f848609	1.0353404
122	0x3f3344da	0.70026934
123	0x3e1c8f3e	0.15289018
124	0x3f0b76ac	0.54477954
125	0x3e00e343	0.12586693
126	0x3ebfe9d1	0.37483075
127	0x3e8439b1	0.25825265
128	0xba0e5813	-0.0005429994
129	0x3e0bc742	0.1365023
130	0x3f4b14f6	0.7932886
131	0x3e27d98c	0.16391581
132	0x3e25ca7a	0.1619052
133	0x3d818b97	0.06325453
134	0x3dd9e0c5	0.106385745
135	0xbc4c50f4	-0.012470473
136	0xbe900575	-0.28129163
137	0xbf0f24d3	-0.55915564
138	0x3bfb2749	0.0076645953
139	0x3f10d348	0.5657239
140	0xbf3651a1	-0.71218306
141	0xbdd1b11b	-0.10238858
142	0xbe35439c	-0.17701572
143	0xbe2d6941	-0.16934682
144	0x3eb5780b	0.35443148
145	0x3f24babd	0.6434744
146	0x3e270829	0.16311707
147	0x3e3910da	0.18072835
148	0xbf0c1ec5	-0.5473445
149	0xbd3ef7c8	-0.04662302
150	0x3e14a351	0.14515425
151	0xbd1044dd	-0.035221923
152	0xbce3575d	-0.027751619
153	0x3ddca9b2	0.10774554
154	0x3ebdb56d	0.3705248
155	0x3f15ca39	0.5851169
156	0x3e2841a9	0.16431297
157	0x3e3958f4	0.18100339
158	0x3f25abe3	0.64715403
159	0x3dee24af	0.116280906
160	0x3efe3dfd	0.49656668
161	0x3ec97cad	0.39352933
162	0xbedf29db	-0.4358662
163	0xbea74a3e	-0.3267383
164	0x3cb3f947	0.02196945
165	0xbf5df6a0	-0.86704445
166	0xbe4f9588	-0.20271885
167	0x3d697a4f	0.05700141
168	0xbedb0caf	-0.42783114
169	0xbe572cac	-0.21013135
170	0x3db2bd68	0.087275326
171	0x3e61054e	0.2197468
172	0xbd91f84d	-0.07127438
173	0x3e669cda	0.22520772
174	0x3dc7f48d	0.09763441
175	0xbe915505	-0.28385177
176	0x3ea07faa	0.313474
177	0x3defc7da	0.117080405
178	0x3ec9ad1e	0.3938989
179	0x3e690a98	0.22757947
180	0x3eb5e786	0.355282
181	0x3e089253	0.13337068
182	0x3e8441f9	0.25831583
183	0x3d85bd8a	0.06530292
184	0xbe585af9	-0.21128453
185	0xbdcb8d45	-0.099390544
186	0x3f45a5e7	0.7720627
187	0xbdc2c1ca	-0.095096186
188	0x3f330644	0.69931436
189	0x3e4fd38d	0.20295544
190	0xbd2990d2	-0.041397877
191	0x3da98a1e	0.08278297
192	0x3ef0294a	0.469065
193	0x3d8e03b0	0.06934297
194	0x3d008df7	0.03138539
195	0x3ea0a744	0.31377614
196	0x3f1f79a6	0.62294996
197	0x3f20527a	0.6262585
198	0x3db17ef9	0.08666796
199	0x3cf09b10	0.029370815
200	0xbdabc671	-0.08387459
201	0xbd863e53	-0.06554856
202	0x3b3874da	0.002814582
203	0xbed298aa	-0.41132098
204	0xbe9414c4	-0.28922093
205	0xbf241545	-0.64094955
206	0xbeb09a7b	-0.3449286
207	0x3ba2a12a	0.00496306
208	0x3e48f3c9	0.19624247
209	0x3e70ad0d	0.23503514
210	0x3df1df7b	0.11810204
211	0x3e1d740f	0.15376304
212	0xbe874207	-0.26417562
213	0xbd47a740	-0.048743486
214	0xbf172524	-0.5904105
215	0xbebed9a5	-0.37275425
216	0x3bac5b8f	0.005259938
217	0xbd518f5c	-0.05116211
218	0xbdf5c444	-0.12000325
219	0x3dc22b1c	0.09480879
220	0x3f94825f	1.1602286
221	0xbe429f4f	-0.19006084
222	0x3d1e089c	0.03858243
223	0xba3f7b6f	-0.0007304465
224	0xbd529eed	-0.051421095
225	0xbe15c33f	-0.14625262
226	0xbf289893	-0.6585781
227	0xbeebb7f6	-0.4603879
228	0x3e68128d	0.22663327
229	0xbeb24445	-0.3481771
230	0xbf364bed	-0.71209604
231	0x3f1d908d	0.6154869
232	0x3f00a28e	0.5024804
233	0x3d94225e	0.072331175
234	0xbd35d4e6	-0.04439249
235	0x3e100ac2	0.14066604
236	0xbc643ee0	-0.013931006
237	0xbc8bc155	-0.017059961
238	0x3f84716a	1.0347111
239	0xbb9e015f	-0.004821941
240	0xbdf5cbde	-0.12001775
241	0xbeb31056	-0.349734
242	0xbf164a79	-0.58707386
243	0xbe83bde9	-0.25730827
244	0xbe1b0ed5	-0.15142377
245	0xbdd5fbbf	-0.104484074
246	0xbf51379d	-0.81725484
247	0x3e8a158f	0.26969573
248	0xbe870a86	-0.26375216
249	0xbf91c902	-1.1389468
250	0xbf81672e	-1.0109613
251	0xbf377dcf	-0.71676344
252	0x3c9a4ea8	0.018836334
253	0xbedbb517	-0.42911598
254	0xbf7ee5cf	-0.9956941
255	0x3e8348ef	0.2564158
